      )
      (context_hidden_projection): Sequential(
        (projection): Linear(in_features=2128, out_features=560, bias=True)
        (act_fn): Sequential()
      )
      (alpha_projection): Sequential(
        (projection): Linear(in_features=64, out_features=1, bias=False)
        (squeeze): Squeeze()
        (temperature): Temperature()
        (softmax): Softmax(dim=1)
      )
    )
    (molecule_attention_3_head_3): ContextAttentionLayer(
      (individual_nonlinearity): Sequential()
      (reference_projection): Sequential(
        (projection): Linear(in_features=64, out_features=64, bias=True)
        (act_fn): Sequential()
      )
      (context_projection): Sequential(
        (projection): Linear(in_features=1, out_features=64, bias=True)
        (act_fn): Sequential()
      )
      (context_hidden_projection): Sequential(
        (projection): Linear(in_features=2128, out_features=560, bias=True)
        (act_fn): Sequential()
      )
      (alpha_projection): Sequential(
        (projection): Linear(in_features=64, out_features=1, bias=False)
        (squeeze): Squeeze()
        (temperature): Temperature()
        (softmax): Softmax(dim=1)
      )
    )
  )
  (gene_attention_layers): Sequential(
    (gene_attention_0_head_0): ContextAttentionLayer(
      (individual_nonlinearity): Sequential()
      (reference_projection): Sequential(
        (projection): Linear(in_features=1, out_features=1, bias=True)
        (act_fn): Sequential()
      )
      (context_projection): Sequential(
        (projection): Linear(in_features=16, out_features=1, bias=True)
        (act_fn): Sequential()
      )
      (context_hidden_projection): Sequential(
        (projection): Linear(in_features=560, out_features=2128, bias=True)
        (act_fn): Sequential()
      )
      (alpha_projection): Sequential(
        (projection): Linear(in_features=1, out_features=1, bias=False)
        (squeeze): Squeeze()
        (temperature): Temperature()
        (softmax): Softmax(dim=1)
      )
    )
    (gene_attention_0_head_1): ContextAttentionLayer(
      (individual_nonlinearity): Sequential()
      (reference_projection): Sequential(
        (projection): Linear(in_features=1, out_features=1, bias=True)
        (act_fn): Sequential()
      )
      (context_projection): Sequential(
        (projection): Linear(in_features=16, out_features=1, bias=True)
        (act_fn): Sequential()
      )
      (context_hidden_projection): Sequential(
        (projection): Linear(in_features=560, out_features=2128, bias=True)
        (act_fn): Sequential()
      )
      (alpha_projection): Sequential(
        (projection): Linear(in_features=1, out_features=1, bias=False)
        (squeeze): Squeeze()
        (temperature): Temperature()
        (softmax): Softmax(dim=1)
      )
    )
    (gene_attention_1_head_0): ContextAttentionLayer(
      (individual_nonlinearity): Sequential()
      (reference_projection): Sequential(
        (projection): Linear(in_features=1, out_features=1, bias=True)
        (act_fn): Sequential()
      )
      (context_projection): Sequential(
        (projection): Linear(in_features=64, out_features=1, bias=True)
        (act_fn): Sequential()
      )
      (context_hidden_projection): Sequential(
        (projection): Linear(in_features=560, out_features=2128, bias=True)
        (act_fn): Sequential()
      )
      (alpha_projection): Sequential(
        (projection): Linear(in_features=1, out_features=1, bias=False)
        (squeeze): Squeeze()
        (temperature): Temperature()
        (softmax): Softmax(dim=1)
      )
    )
    (gene_attention_1_head_1): ContextAttentionLayer(
      (individual_nonlinearity): Sequential()
      (reference_projection): Sequential(
        (projection): Linear(in_features=1, out_features=1, bias=True)
        (act_fn): Sequential()
      )
      (context_projection): Sequential(
        (projection): Linear(in_features=64, out_features=1, bias=True)
        (act_fn): Sequential()
      )
      (context_hidden_projection): Sequential(
        (projection): Linear(in_features=560, out_features=2128, bias=True)
        (act_fn): Sequential()
      )
      (alpha_projection): Sequential(
        (projection): Linear(in_features=1, out_features=1, bias=False)
        (squeeze): Squeeze()
        (temperature): Temperature()
        (softmax): Softmax(dim=1)
      )
    )
    (gene_attention_2_head_0): ContextAttentionLayer(
      (individual_nonlinearity): Sequential()
      (reference_projection): Sequential(
        (projection): Linear(in_features=1, out_features=1, bias=True)
        (act_fn): Sequential()
      )
      (context_projection): Sequential(
        (projection): Linear(in_features=64, out_features=1, bias=True)
        (act_fn): Sequential()
      )
      (context_hidden_projection): Sequential(
        (projection): Linear(in_features=560, out_features=2128, bias=True)
        (act_fn): Sequential()
      )
      (alpha_projection): Sequential(
        (projection): Linear(in_features=1, out_features=1, bias=False)
        (squeeze): Squeeze()
        (temperature): Temperature()
        (softmax): Softmax(dim=1)
      )
    )
    (gene_attention_2_head_1): ContextAttentionLayer(
      (individual_nonlinearity): Sequential()
      (reference_projection): Sequential(
        (projection): Linear(in_features=1, out_features=1, bias=True)
        (act_fn): Sequential()
      )
      (context_projection): Sequential(
        (projection): Linear(in_features=64, out_features=1, bias=True)
        (act_fn): Sequential()
      )
      (context_hidden_projection): Sequential(
        (projection): Linear(in_features=560, out_features=2128, bias=True)
        (act_fn): Sequential()
      )
      (alpha_projection): Sequential(
        (projection): Linear(in_features=1, out_features=1, bias=False)
        (squeeze): Squeeze()
        (temperature): Temperature()
        (softmax): Softmax(dim=1)
      )
    )
    (gene_attention_3_head_0): ContextAttentionLayer(
      (individual_nonlinearity): Sequential()
      (reference_projection): Sequential(
        (projection): Linear(in_features=1, out_features=1, bias=True)
        (act_fn): Sequential()
      )
      (context_projection): Sequential(
        (projection): Linear(in_features=64, out_features=1, bias=True)
        (act_fn): Sequential()
      )
      (context_hidden_projection): Sequential(
        (projection): Linear(in_features=560, out_features=2128, bias=True)
        (act_fn): Sequential()
      )
      (alpha_projection): Sequential(
        (projection): Linear(in_features=1, out_features=1, bias=False)
        (squeeze): Squeeze()
        (temperature): Temperature()
        (softmax): Softmax(dim=1)
      )
    )
    (gene_attention_3_head_1): ContextAttentionLayer(
      (individual_nonlinearity): Sequential()
      (reference_projection): Sequential(
        (projection): Linear(in_features=1, out_features=1, bias=True)
        (act_fn): Sequential()
      )
      (context_projection): Sequential(
        (projection): Linear(in_features=64, out_features=1, bias=True)
        (act_fn): Sequential()
      )
      (context_hidden_projection): Sequential(
        (projection): Linear(in_features=560, out_features=2128, bias=True)
        (act_fn): Sequential()
      )
      (alpha_projection): Sequential(
        (projection): Linear(in_features=1, out_features=1, bias=False)
        (squeeze): Squeeze()
        (temperature): Temperature()
        (softmax): Softmax(dim=1)
      )
    )
  )
  (batch_norm): BatchNorm1d(17856, eps=1e-05, momentum=0.1, affine=True, track_running_stats=True)
  (dense_layers): Sequential(
    (dense_0): Sequential(
      (projection): Linear(in_features=17856, out_features=1024, bias=True)
      (batch_norm): BatchNorm1d(1024, eps=1e-05, momentum=0.1, affine=True, track_running_stats=True)
      (act_fn): ReLU()
      (dropout): Dropout(p=0.5, inplace=False)
    )
    (dense_1): Sequential(
      (projection): Linear(in_features=1024, out_features=512, bias=True)
      (batch_norm): BatchNorm1d(512, eps=1e-05, momentum=0.1, affine=True, track_running_stats=True)
      (act_fn): ReLU()
      (dropout): Dropout(p=0.5, inplace=False)
    )
  )
  (final_dense): Sequential(
    (projection): Linear(in_features=512, out_features=1, bias=True)
    (sigmoidal): Sigmoid()
  )
)
INFO:paccmann:Training about to start...

INFO:paccmann:example_params.json
INFO:paccmann:== Epoch [0/200] ==
cuda
Traceback (most recent call last):
  File "/home/deanelzinga/phillipdowney/paccmann_rl/./code/paccmann_predictor/examples/IC50/train_paccmann.py", line 344, in <module>
    main(
  File "/home/deanelzinga/phillipdowney/paccmann_rl/./code/paccmann_predictor/examples/IC50/train_paccmann.py", line 248, in main
…
  minimum = np.nanmin(minimums, axis=0)
/opt/conda/envs/openad-train/lib/python3.10/site-packages/pytoda/datasets/_csv_statistics.py:225: RuntimeWarning: invalid value encountered in divide
  np.nansum(
/opt/conda/envs/openad-train/lib/python3.10/site-packages/pytoda/datasets/_csv_statistics.py:236: RuntimeWarning: invalid value encountered in divide
  np.nansum(
INFO:paccmann:Training dataset has 69479 samples, test set has 7670.
INFO:paccmann:Device for data loader is None and for model is cuda
INFO:paccmann:Number of parameters 47554353
INFO:paccmann:PaccMannV2(
  (loss_fn): MSELoss()
  (act_fn): ReLU()
  (smiles_embedding): Embedding(35, 16)
  (convolutional_layers): Sequential(
    (convolutional_0): Sequential(
      (convolve): Conv2d(1, 64, kernel_size=(3, 16), stride=(1, 1), padding=(1, 0))
      (squeeze): Squeeze()
      (act_fn): ReLU()
      (dropout): Dropout(p=0.5, inplace=False)
      (batch_norm): BatchNorm1d(64, eps=1e-05, momentum=0.1, affine=True, track_running_stats=True)
    )
    (convolutional_1): Sequential(
      (convolve): Conv2d(1, 64, kernel_size=(5, 16), stride=(1, 1), padding=(2, 0))
      (squeeze): Squeeze()
      (act_fn): ReLU()
      (dropout): Dropout(p=0.5, inplace=False)
      (batch_norm): BatchNorm1d(64, eps=1e-05, momentum=0.1, affine=True, track_running_stats=True)
    )
    (convolutional_2): Sequential(
      (convolve): Conv2d(1, 64, kernel_size=(11, 16), stride=(1, 1), padding=(5, 0))
      (squeeze): Squeeze()
      (act_fn): ReLU()
      (dropout): Dropout(p=0.5, inplace=False)
      (batch_norm): BatchNorm1d(64, eps=1e-05, momentum=0.1, affine=True, track_running_stats=True)
    )
  )
  (molecule_attention_layers): Sequential(
    (molecule_attention_0_head_0): ContextAttentionLayer(
      (individual_nonlinearity): Sequential()
      (reference_projection): Sequential(
        (projection): Linear(in_features=16, out_features=64, bias=True)
        (act_fn): Sequential()
      )
      (context_projection): Sequential(
        (projection): Linear(in_features=1, out_features=64, bias=True)
        (act_fn): Sequential()
      )
      (context_hidden_projection): Sequential(
        (projection): Linear(in_features=2128, out_features=560, bias=True)
        (act_fn): Sequential()
      )
      (alpha_projection): Sequential(
        (projection): Linear(in_features=64, out_features=1, bias=False)
        (squeeze): Squeeze()
        (temperature): Temperature()
        (softmax): Softmax(dim=1)
      )
    )
    (molecule_attention_0_head_1): ContextAttentionLayer(
      (individual_nonlinearity): Sequential()
      (reference_projection): Sequential(
        (projection): Linear(in_features=16, out_features=64, bias=True)
        (act_fn): Sequential()
      )
      (context_projection): Sequential(
        (projection): Linear(in_features=1, out_features=64, bias=True)
        (act_fn): Sequential()
      )
      (context_hidden_projection): Sequential(
        (projection): Linear(in_features=2128, out_features=560, bias=True)
        (act_fn): Sequential()
      )
      (alpha_projection): Sequential(
        (projection): Linear(in_features=64, out_features=1, bias=False)
        (squeeze): Squeeze()
        (temperature): Temperature()
        (softmax): Softmax(dim=1)
      )
    )
    (molecule_attention_0_head_2): ContextAttentionLayer(
      (individual_nonlinearity): Sequential()
      (reference_projection): Sequential(
        (projection): Linear(in_features=16, out_features=64, bias=True)
        (act_fn): Sequential()
      )
      (context_projection): Sequential(
        (projection): Linear(in_features=1, out_features=64, bias=True)
        (act_fn): Sequential()
      )
      (context_hidden_projection): Sequential(
        (projection): Linear(in_features=2128, out_features=560, bias=True)
        (act_fn): Sequential()
      )
      (alpha_projection): Sequential(
        (projection): Linear(in_features=64, out_features=1, bias=False)
        (squeeze): Squeeze()
        (temperature): Temperature()
        (softmax): Softmax(dim=1)
      )
    )
    (molecule_attention_0_head_3): ContextAttentionLayer(
      (individual_nonlinearity): Sequential()
      (reference_projection): Sequential(
        (projection): Linear(in_features=16, out_features=64, bias=True)
        (act_fn): Sequential()
      )
      (context_projection): Sequential(
        (projection): Linear(in_features=1, out_features=64, bias=True)
        (act_fn): Sequential()
      )
      (context_hidden_projection): Sequential(
        (projection): Linear(in_features=2128, out_features=560, bias=True)
        (act_fn): Sequential()
      )
      (alpha_projection): Sequential(
        (projection): Linear(in_features=64, out_features=1, bias=False)
        (squeeze): Squeeze()
        (temperature): Temperature()
        (softmax): Softmax(dim=1)
      )
    )
    (molecule_attention_1_head_0): ContextAttentionLayer(
      (individual_nonlinearity): Sequential()
      (reference_projection): Sequential(
        (projection): Linear(in_features=64, out_features=64, bias=True)
        (act_fn): Sequential()
      )
      (context_projection): Sequential(
        (projection): Linear(in_features=1, out_features=64, bias=True)
        (act_fn): Sequential()
      )
      (context_hidden_projection): Sequential(
        (projection): Linear(in_features=2128, out_features=560, bias=True)
        (act_fn): Sequential()
      )
      (alpha_projection): Sequential(
        (projection): Linear(in_features=64, out_features=1, bias=False)
        (squeeze): Squeeze()
        (temperature): Temperature()
        (softmax): Softmax(dim=1)
      )
    )
    (molecule_attention_1_head_1): ContextAttentionLayer(
      (individual_nonlinearity): Sequential()
      (reference_projection): Sequential(
        (projection): Linear(in_features=64, out_features=64, bias=True)
        (act_fn): Sequential()
      )
      (context_projection): Sequential(
        (projection): Linear(in_features=1, out_features=64, bias=True)
        (act_fn): Sequential()
      )
      (context_hidden_projection): Sequential(
        (projection): Linear(in_features=2128, out_features=560, bias=True)
        (act_fn): Sequential()
      )
      (alpha_projection): Sequential(
        (projection): Linear(in_features=64, out_features=1, bias=False)
        (squeeze): Squeeze()
        (temperature): Temperature()
        (softmax): Softmax(dim=1)
      )
    )
    (molecule_attention_1_head_2): ContextAttentionLayer(
      (individual_nonlinearity): Sequential()
      (reference_projection): Sequential(
        (projection): Linear(in_features=64, out_features=64, bias=True)
        (act_fn): Sequential()
      )
      (context_projection): Sequential(
        (projection): Linear(in_features=1, out_features=64, bias=True)
        (act_fn): Sequential()
      )
      (context_hidden_projection): Sequential(
        (projection): Linear(in_features=2128, out_features=560, bias=True)
        (act_fn): Sequential()
      )
      (alpha_projection): Sequential(
        (projection): Linear(in_features=64, out_features=1, bias=False)
        (squeeze): Squeeze()
        (temperature): Temperature()
        (softmax): Softmax(dim=1)
      )
    )
    (molecule_attention_1_head_3): ContextAttentionLayer(
      (individual_nonlinearity): Sequential()
      (reference_projection): Sequential(
        (projection): Linear(in_features=64, out_features=64, bias=True)
        (act_fn): Sequential()
      )
      (context_projection): Sequential(
        (projection): Linear(in_features=1, out_features=64, bias=True)
        (act_fn): Sequential()
      )
      (context_hidden_projection): Sequential(
        (projection): Linear(in_features=2128, out_features=560, bias=True)
        (act_fn): Sequential()
      )
      (alpha_projection): Sequential(
        (projection): Linear(in_features=64, out_features=1, bias=False)
        (squeeze): Squeeze()
        (temperature): Temperature()
        (softmax): Softmax(dim=1)
      )
    )
    (molecule_attention_2_head_0): ContextAttentionLayer(
      (individual_nonlinearity): Sequential()
      (reference_projection): Sequential(
        (projection): Linear(in_features=64, out_features=64, bias=True)
        (act_fn): Sequential()
      )
      (context_projection): Sequential(
        (projection): Linear(in_features=1, out_features=64, bias=True)
        (act_fn): Sequential()
      )
      (context_hidden_projection): Sequential(
        (projection): Linear(in_features=2128, out_features=560, bias=True)
        (act_fn): Sequential()
      )
      (alpha_projection): Sequential(
        (projection): Linear(in_features=64, out_features=1, bias=False)
        (squeeze): Squeeze()
        (temperature): Temperature()
        (softmax): Softmax(dim=1)
      )
    )
    (molecule_attention_2_head_1): ContextAttentionLayer(
      (individual_nonlinearity): Sequential()
      (reference_projection): Sequential(
        (projection): Linear(in_features=64, out_features=64, bias=True)
        (act_fn): Sequential()
      )
      (context_projection): Sequential(
        (projection): Linear(in_features=1, out_features=64, bias=True)
        (act_fn): Sequential()
      )
      (context_hidden_projection): Sequential(
        (projection): Linear(in_features=2128, out_features=560, bias=True)
        (act_fn): Sequential()
      )
      (alpha_projection): Sequential(
        (projection): Linear(in_features=64, out_features=1, bias=False)
        (squeeze): Squeeze()
        (temperature): Temperature()
        (softmax): Softmax(dim=1)
      )
    )
    (molecule_attention_2_head_2): ContextAttentionLayer(
      (individual_nonlinearity): Sequential()
      (reference_projection): Sequential(
        (projection): Linear(in_features=64, out_features=64, bias=True)
        (act_fn): Sequential()
      )
      (context_projection): Sequential(
        (projection): Linear(in_features=1, out_features=64, bias=True)
        (act_fn): Sequential()
      )
      (context_hidden_projection): Sequential(
        (projection): Linear(in_features=2128, out_features=560, bias=True)
        (act_fn): Sequential()
      )
      (alpha_projection): Sequential(
        (projection): Linear(in_features=64, out_features=1, bias=False)
        (squeeze): Squeeze()
        (temperature): Temperature()
        (softmax): Softmax(dim=1)
      )
    )
    (molecule_attention_2_head_3): ContextAttentionLayer(
      (individual_nonlinearity): Sequential()
      (reference_projection): Sequential(
        (projection): Linear(in_features=64, out_features=64, bias=True)
        (act_fn): Sequential()
      )
      (context_projection): Sequential(
        (projection): Linear(in_features=1, out_features=64, bias=True)
        (act_fn): Sequential()
      )
      (context_hidden_projection): Sequential(
        (projection): Linear(in_features=2128, out_features=560, bias=True)
        (act_fn): Sequential()
      )
      (alpha_projection): Sequential(
        (projection): Linear(in_features=64, out_features=1, bias=False)
        (squeeze): Squeeze()
        (temperature): Temperature()
        (softmax): Softmax(dim=1)
      )
    )
    (molecule_attention_3_head_0): ContextAttentionLayer(
      (individual_nonlinearity): Sequential()
      (reference_projection): Sequential(
        (projection): Linear(in_features=64, out_features=64, bias=True)
        (act_fn): Sequential()
      )
      (context_projection): Sequential(
        (projection): Linear(in_features=1, out_features=64, bias=True)
        (act_fn): Sequential()
      )
      (context_hidden_projection): Sequential(
        (projection): Linear(in_features=2128, out_features=560, bias=True)
        (act_fn): Sequential()
      )
      (alpha_projection): Sequential(
        (projection): Linear(in_features=64, out_features=1, bias=False)
        (squeeze): Squeeze()
        (temperature): Temperature()
        (softmax): Softmax(dim=1)
      )
    )
    (molecule_attention_3_head_1): ContextAttentionLayer(
      (individual_nonlinearity): Sequential()
      (reference_projection): Sequential(
        (projection): Linear(in_features=64, out_features=64, bias=True)
        (act_fn): Sequential()
      )
      (context_projection): Sequential(
        (projection): Linear(in_features=1, out_features=64, bias=True)
        (act_fn): Sequential()
      )
      (context_hidden_projection): Sequential(
        (projection): Linear(in_features=2128, out_features=560, bias=True)
        (act_fn): Sequential()
      )
      (alpha_projection): Sequential(
        (projection): Linear(in_features=64, out_features=1, bias=False)
        (squeeze): Squeeze()
        (temperature): Temperature()
        (softmax): Softmax(dim=1)
      )
    )
    (molecule_attention_3_head_2): ContextAttentionLayer(
      (individual_nonlinearity): Sequential()
      (reference_projection): Sequential(
        (projection): Linear(in_features=64, out_features=64, bias=True)
        (act_fn): Sequential()
      )
      (context_projection): Sequential(
        (projection): Linear(in_features=1, out_features=64, bias=True)
        (act_fn): Sequential()
      )
      (context_hidden_projection): Sequential(
        (projection): Linear(in_features=2128, out_features=560, bias=True)
        (act_fn): Sequential()
      )
      (alpha_projection): Sequential(
        (projection): Linear(in_features=64, out_features=1, bias=False)
        (squeeze): Squeeze()
        (temperature): Temperature()
        (softmax): Softmax(dim=1)
      )
    )
    (molecule_attention_3_head_3): ContextAttentionLayer(
      (individual_nonlinearity): Sequential()
      (reference_projection): Sequential(
        (projection): Linear(in_features=64, out_features=64, bias=True)
        (act_fn): Sequential()
      )
      (context_projection): Sequential(
        (projection): Linear(in_features=1, out_features=64, bias=True)
        (act_fn): Sequential()
      )
      (context_hidden_projection): Sequential(
        (projection): Linear(in_features=2128, out_features=560, bias=True)
        (act_fn): Sequential()
      )
      (alpha_projection): Sequential(
        (projection): Linear(in_features=64, out_features=1, bias=False)
        (squeeze): Squeeze()
        (temperature): Temperature()
        (softmax): Softmax(dim=1)
      )
    )
  )
  (gene_attention_layers): Sequential(
    (gene_attention_0_head_0): ContextAttentionLayer(
      (individual_nonlinearity): Sequential()
      (reference_projection): Sequential(
        (projection): Linear(in_features=1, out_features=1, bias=True)
        (act_fn): Sequential()
      )
      (context_projection): Sequential(
        (projection): Linear(in_features=16, out_features=1, bias=True)
        (act_fn): Sequential()
      )
      (context_hidden_projection): Sequential(
        (projection): Linear(in_features=560, out_features=2128, bias=True)
        (act_fn): Sequential()
      )
      (alpha_projection): Sequential(
        (projection): Linear(in_features=1, out_features=1, bias=False)
        (squeeze): Squeeze()
        (temperature): Temperature()
        (softmax): Softmax(dim=1)
      )
    )
    (gene_attention_0_head_1): ContextAttentionLayer(
      (individual_nonlinearity): Sequential()
      (reference_projection): Sequential(
        (projection): Linear(in_features=1, out_features=1, bias=True)
        (act_fn): Sequential()
      )
      (context_projection): Sequential(
        (projection): Linear(in_features=16, out_features=1, bias=True)
        (act_fn): Sequential()
      )
      (context_hidden_projection): Sequential(
        (projection): Linear(in_features=560, out_features=2128, bias=True)
        (act_fn): Sequential()
      )
      (alpha_projection): Sequential(
        (projection): Linear(in_features=1, out_features=1, bias=False)
        (squeeze): Squeeze()
        (temperature): Temperature()
        (softmax): Softmax(dim=1)
      )
    )
    (gene_attention_1_head_0): ContextAttentionLayer(
      (individual_nonlinearity): Sequential()
      (reference_projection): Sequential(
        (projection): Linear(in_features=1, out_features=1, bias=True)
        (act_fn): Sequential()
      )
      (context_projection): Sequential(
        (projection): Linear(in_features=64, out_features=1, bias=True)
        (act_fn): Sequential()
      )
      (context_hidden_projection): Sequential(
        (projection): Linear(in_features=560, out_features=2128, bias=True)
        (act_fn): Sequential()
      )
      (alpha_projection): Sequential(
        (projection): Linear(in_features=1, out_features=1, bias=False)
        (squeeze): Squeeze()
        (temperature): Temperature()
        (softmax): Softmax(dim=1)
      )
    )
    (gene_attention_1_head_1): ContextAttentionLayer(
      (individual_nonlinearity): Sequential()
      (reference_projection): Sequential(
        (projection): Linear(in_features=1, out_features=1, bias=True)
        (act_fn): Sequential()
      )
      (context_projection): Sequential(
        (projection): Linear(in_features=64, out_features=1, bias=True)
        (act_fn): Sequential()
      )
      (context_hidden_projection): Sequential(
        (projection): Linear(in_features=560, out_features=2128, bias=True)
        (act_fn): Sequential()
      )
      (alpha_projection): Sequential(
        (projection): Linear(in_features=1, out_features=1, bias=False)
        (squeeze): Squeeze()
        (temperature): Temperature()
        (softmax): Softmax(dim=1)
      )
    )
    (gene_attention_2_head_0): ContextAttentionLayer(
      (individual_nonlinearity): Sequential()
      (reference_projection): Sequential(
        (projection): Linear(in_features=1, out_features=1, bias=True)
        (act_fn): Sequential()
      )
      (context_projection): Sequential(
        (projection): Linear(in_features=64, out_features=1, bias=True)
        (act_fn): Sequential()
      )
      (context_hidden_projection): Sequential(
        (projection): Linear(in_features=560, out_features=2128, bias=True)
        (act_fn): Sequential()
      )
      (alpha_projection): Sequential(
        (projection): Linear(in_features=1, out_features=1, bias=False)
        (squeeze): Squeeze()
        (temperature): Temperature()
        (softmax): Softmax(dim=1)
      )
    )
    (gene_attention_2_head_1): ContextAttentionLayer(
      (individual_nonlinearity): Sequential()
      (reference_projection): Sequential(
        (projection): Linear(in_features=1, out_features=1, bias=True)
        (act_fn): Sequential()
      )
      (context_projection): Sequential(
        (projection): Linear(in_features=64, out_features=1, bias=True)
        (act_fn): Sequential()
      )
      (context_hidden_projection): Sequential(
        (projection): Linear(in_features=560, out_features=2128, bias=True)
        (act_fn): Sequential()
      )
      (alpha_projection): Sequential(
        (projection): Linear(in_features=1, out_features=1, bias=False)
        (squeeze): Squeeze()
        (temperature): Temperature()
        (softmax): Softmax(dim=1)
      )
    )
    (gene_attention_3_head_0): ContextAttentionLayer(
      (individual_nonlinearity): Sequential()
      (reference_projection): Sequential(
        (projection): Linear(in_features=1, out_features=1, bias=True)
        (act_fn): Sequential()
      )
      (context_projection): Sequential(
        (projection): Linear(in_features=64, out_features=1, bias=True)
        (act_fn): Sequential()
      )
      (context_hidden_projection): Sequential(
        (projection): Linear(in_features=560, out_features=2128, bias=True)
        (act_fn): Sequential()
      )
      (alpha_projection): Sequential(
        (projection): Linear(in_features=1, out_features=1, bias=False)
        (squeeze): Squeeze()
        (temperature): Temperature()
        (softmax): Softmax(dim=1)
      )
    )
    (gene_attention_3_head_1): ContextAttentionLayer(
      (individual_nonlinearity): Sequential()
      (reference_projection): Sequential(
        (projection): Linear(in_features=1, out_features=1, bias=True)
        (act_fn): Sequential()
      )
      (context_projection): Sequential(
        (projection): Linear(in_features=64, out_features=1, bias=True)
        (act_fn): Sequential()
      )
      (context_hidden_projection): Sequential(
        (projection): Linear(in_features=560, out_features=2128, bias=True)
        (act_fn): Sequential()
      )
      (alpha_projection): Sequential(
        (projection): Linear(in_features=1, out_features=1, bias=False)
        (squeeze): Squeeze()
        (temperature): Temperature()
        (softmax): Softmax(dim=1)
      )
    )
  )
  (batch_norm): BatchNorm1d(17856, eps=1e-05, momentum=0.1, affine=True, track_running_stats=True)
  (dense_layers): Sequential(
    (dense_0): Sequential(
      (projection): Linear(in_features=17856, out_features=1024, bias=True)
      (batch_norm): BatchNorm1d(1024, eps=1e-05, momentum=0.1, affine=True, track_running_stats=True)
      (act_fn): ReLU()
      (dropout): Dropout(p=0.5, inplace=False)
    )
    (dense_1): Sequential(
      (projection): Linear(in_features=1024, out_features=512, bias=True)
      (batch_norm): BatchNorm1d(512, eps=1e-05, momentum=0.1, affine=True, track_running_stats=True)
      (act_fn): ReLU()
      (dropout): Dropout(p=0.5, inplace=False)
    )
  )
  (final_dense): Sequential(
    (projection): Linear(in_features=512, out_features=1, bias=True)
    (sigmoidal): Sigmoid()
  )
)
INFO:paccmann:Training about to start...

INFO:paccmann:example_params.json
INFO:paccmann:== Epoch [0/200] ==
cuda
Traceback (most recent call last):
  File "/home/deanelzinga/phillipdowney/paccmann_rl/./code/paccmann_predictor/examples/IC50/train_paccmann.py", line 344, in <module>
    main(
  File "/home/deanelzinga/phillipdowney/paccmann_rl/./code/paccmann_predictor/examples/IC50/train_paccmann.py", line 248, in main
…
/opt/conda/envs/openad-train/lib/python3.10/site-packages/pytoda/datasets/_csv_statistics.py:225: RuntimeWarning: invalid value encountered in divide
  np.nansum(
/opt/conda/envs/openad-train/lib/python3.10/site-packages/pytoda/datasets/_csv_statistics.py:236: RuntimeWarning: invalid value encountered in divide
  np.nansum(
INFO:paccmann_v2:Training dataset has 69479 samples, test set has 7670.
INFO:paccmann_v2:Device for data loader is None and for model is cuda
INFO:paccmann_v2:Number of parameters 45102129
INFO:paccmann_v2:PaccMannV2(
  (loss_fn): MSELoss()
  (act_fn): ReLU()
  (smiles_embedding): Embedding(35, 16)
  (convolutional_layers): Sequential(
    (convolutional_0): Sequential(
      (convolve): Conv2d(1, 64, kernel_size=(3, 16), stride=(1, 1), padding=(1, 0))
      (squeeze): Squeeze()
      (act_fn): ReLU()
      (dropout): Dropout(p=0.5, inplace=False)
      (batch_norm): BatchNorm1d(64, eps=1e-05, momentum=0.1, affine=True, track_running_stats=True)
    )
    (convolutional_1): Sequential(
      (convolve): Conv2d(1, 64, kernel_size=(5, 16), stride=(1, 1), padding=(2, 0))
      (squeeze): Squeeze()
      (act_fn): ReLU()
      (dropout): Dropout(p=0.5, inplace=False)
      (batch_norm): BatchNorm1d(64, eps=1e-05, momentum=0.1, affine=True, track_running_stats=True)
    )
    (convolutional_2): Sequential(
      (convolve): Conv2d(1, 64, kernel_size=(11, 16), stride=(1, 1), padding=(5, 0))
      (squeeze): Squeeze()
      (act_fn): ReLU()
      (dropout): Dropout(p=0.5, inplace=False)
      (batch_norm): BatchNorm1d(64, eps=1e-05, momentum=0.1, affine=True, track_running_stats=True)
    )
  )
  (molecule_attention_layers): Sequential(
    (molecule_attention_0_head_0): ContextAttentionLayer(
      (individual_nonlinearity): Sequential()
      (reference_projection): Sequential(
        (projection): Linear(in_features=16, out_features=64, bias=True)
        (act_fn): Sequential()
      )
      (context_projection): Sequential(
        (projection): Linear(in_features=1, out_features=64, bias=True)
        (act_fn): Sequential()
      )
      (context_hidden_projection): Sequential(
        (projection): Linear(in_features=2128, out_features=512, bias=True)
        (act_fn): Sequential()
      )
      (alpha_projection): Sequential(
        (projection): Linear(in_features=64, out_features=1, bias=False)
        (squeeze): Squeeze()
        (temperature): Temperature()
        (softmax): Softmax(dim=1)
      )
    )
    (molecule_attention_0_head_1): ContextAttentionLayer(
      (individual_nonlinearity): Sequential()
      (reference_projection): Sequential(
        (projection): Linear(in_features=16, out_features=64, bias=True)
        (act_fn): Sequential()
      )
      (context_projection): Sequential(
        (projection): Linear(in_features=1, out_features=64, bias=True)
        (act_fn): Sequential()
      )
      (context_hidden_projection): Sequential(
        (projection): Linear(in_features=2128, out_features=512, bias=True)
        (act_fn): Sequential()
      )
      (alpha_projection): Sequential(
        (projection): Linear(in_features=64, out_features=1, bias=False)
        (squeeze): Squeeze()
        (temperature): Temperature()
        (softmax): Softmax(dim=1)
      )
    )
    (molecule_attention_0_head_2): ContextAttentionLayer(
      (individual_nonlinearity): Sequential()
      (reference_projection): Sequential(
        (projection): Linear(in_features=16, out_features=64, bias=True)
        (act_fn): Sequential()
      )
      (context_projection): Sequential(
        (projection): Linear(in_features=1, out_features=64, bias=True)
        (act_fn): Sequential()
      )
      (context_hidden_projection): Sequential(
        (projection): Linear(in_features=2128, out_features=512, bias=True)
        (act_fn): Sequential()
      )
      (alpha_projection): Sequential(
        (projection): Linear(in_features=64, out_features=1, bias=False)
        (squeeze): Squeeze()
        (temperature): Temperature()
        (softmax): Softmax(dim=1)
      )
    )
    (molecule_attention_0_head_3): ContextAttentionLayer(
      (individual_nonlinearity): Sequential()
      (reference_projection): Sequential(
        (projection): Linear(in_features=16, out_features=64, bias=True)
        (act_fn): Sequential()
      )
      (context_projection): Sequential(
        (projection): Linear(in_features=1, out_features=64, bias=True)
        (act_fn): Sequential()
      )
      (context_hidden_projection): Sequential(
        (projection): Linear(in_features=2128, out_features=512, bias=True)
        (act_fn): Sequential()
      )
      (alpha_projection): Sequential(
        (projection): Linear(in_features=64, out_features=1, bias=False)
        (squeeze): Squeeze()
        (temperature): Temperature()
        (softmax): Softmax(dim=1)
      )
    )
    (molecule_attention_1_head_0): ContextAttentionLayer(
      (individual_nonlinearity): Sequential()
      (reference_projection): Sequential(
        (projection): Linear(in_features=64, out_features=64, bias=True)
        (act_fn): Sequential()
      )
      (context_projection): Sequential(
        (projection): Linear(in_features=1, out_features=64, bias=True)
        (act_fn): Sequential()
      )
      (context_hidden_projection): Sequential(
        (projection): Linear(in_features=2128, out_features=512, bias=True)
        (act_fn): Sequential()
      )
      (alpha_projection): Sequential(
        (projection): Linear(in_features=64, out_features=1, bias=False)
        (squeeze): Squeeze()
        (temperature): Temperature()
        (softmax): Softmax(dim=1)
      )
    )
    (molecule_attention_1_head_1): ContextAttentionLayer(
      (individual_nonlinearity): Sequential()
      (reference_projection): Sequential(
        (projection): Linear(in_features=64, out_features=64, bias=True)
        (act_fn): Sequential()
      )
      (context_projection): Sequential(
        (projection): Linear(in_features=1, out_features=64, bias=True)
        (act_fn): Sequential()
      )
      (context_hidden_projection): Sequential(
        (projection): Linear(in_features=2128, out_features=512, bias=True)
        (act_fn): Sequential()
      )
      (alpha_projection): Sequential(
        (projection): Linear(in_features=64, out_features=1, bias=False)
        (squeeze): Squeeze()
        (temperature): Temperature()
        (softmax): Softmax(dim=1)
      )
    )
    (molecule_attention_1_head_2): ContextAttentionLayer(
      (individual_nonlinearity): Sequential()
      (reference_projection): Sequential(
        (projection): Linear(in_features=64, out_features=64, bias=True)
        (act_fn): Sequential()
      )
      (context_projection): Sequential(
        (projection): Linear(in_features=1, out_features=64, bias=True)
        (act_fn): Sequential()
      )
      (context_hidden_projection): Sequential(
        (projection): Linear(in_features=2128, out_features=512, bias=True)
        (act_fn): Sequential()
      )
      (alpha_projection): Sequential(
        (projection): Linear(in_features=64, out_features=1, bias=False)
        (squeeze): Squeeze()
        (temperature): Temperature()
        (softmax): Softmax(dim=1)
      )
    )
    (molecule_attention_1_head_3): ContextAttentionLayer(
      (individual_nonlinearity): Sequential()
      (reference_projection): Sequential(
        (projection): Linear(in_features=64, out_features=64, bias=True)
        (act_fn): Sequential()
      )
      (context_projection): Sequential(
        (projection): Linear(in_features=1, out_features=64, bias=True)
        (act_fn): Sequential()
      )
      (context_hidden_projection): Sequential(
        (projection): Linear(in_features=2128, out_features=512, bias=True)
        (act_fn): Sequential()
      )
      (alpha_projection): Sequential(
        (projection): Linear(in_features=64, out_features=1, bias=False)
        (squeeze): Squeeze()
        (temperature): Temperature()
        (softmax): Softmax(dim=1)
      )
    )
    (molecule_attention_2_head_0): ContextAttentionLayer(
      (individual_nonlinearity): Sequential()
      (reference_projection): Sequential(
        (projection): Linear(in_features=64, out_features=64, bias=True)
        (act_fn): Sequential()
      )
      (context_projection): Sequential(
        (projection): Linear(in_features=1, out_features=64, bias=True)
        (act_fn): Sequential()
      )
      (context_hidden_projection): Sequential(
        (projection): Linear(in_features=2128, out_features=512, bias=True)
        (act_fn): Sequential()
      )
      (alpha_projection): Sequential(
        (projection): Linear(in_features=64, out_features=1, bias=False)
        (squeeze): Squeeze()
        (temperature): Temperature()
        (softmax): Softmax(dim=1)
      )
    )
    (molecule_attention_2_head_1): ContextAttentionLayer(
      (individual_nonlinearity): Sequential()
      (reference_projection): Sequential(
        (projection): Linear(in_features=64, out_features=64, bias=True)
        (act_fn): Sequential()
      )
      (context_projection): Sequential(
        (projection): Linear(in_features=1, out_features=64, bias=True)
        (act_fn): Sequential()
      )
      (context_hidden_projection): Sequential(
        (projection): Linear(in_features=2128, out_features=512, bias=True)
        (act_fn): Sequential()
      )
      (alpha_projection): Sequential(
        (projection): Linear(in_features=64, out_features=1, bias=False)
        (squeeze): Squeeze()
        (temperature): Temperature()
        (softmax): Softmax(dim=1)
      )
    )
    (molecule_attention_2_head_2): ContextAttentionLayer(
      (individual_nonlinearity): Sequential()
      (reference_projection): Sequential(
        (projection): Linear(in_features=64, out_features=64, bias=True)
        (act_fn): Sequential()
      )
      (context_projection): Sequential(
        (projection): Linear(in_features=1, out_features=64, bias=True)
        (act_fn): Sequential()
      )
      (context_hidden_projection): Sequential(
        (projection): Linear(in_features=2128, out_features=512, bias=True)
        (act_fn): Sequential()
      )
      (alpha_projection): Sequential(
        (projection): Linear(in_features=64, out_features=1, bias=False)
        (squeeze): Squeeze()
        (temperature): Temperature()
        (softmax): Softmax(dim=1)
      )
    )
    (molecule_attention_2_head_3): ContextAttentionLayer(
      (individual_nonlinearity): Sequential()
      (reference_projection): Sequential(
        (projection): Linear(in_features=64, out_features=64, bias=True)
        (act_fn): Sequential()
      )
      (context_projection): Sequential(
        (projection): Linear(in_features=1, out_features=64, bias=True)
        (act_fn): Sequential()
      )
      (context_hidden_projection): Sequential(
        (projection): Linear(in_features=2128, out_features=512, bias=True)
        (act_fn): Sequential()
      )
      (alpha_projection): Sequential(
        (projection): Linear(in_features=64, out_features=1, bias=False)
        (squeeze): Squeeze()
        (temperature): Temperature()
        (softmax): Softmax(dim=1)
      )
    )
    (molecule_attention_3_head_0): ContextAttentionLayer(
      (individual_nonlinearity): Sequential()
      (reference_projection): Sequential(
        (projection): Linear(in_features=64, out_features=64, bias=True)
        (act_fn): Sequential()
      )
      (context_projection): Sequential(
        (projection): Linear(in_features=1, out_features=64, bias=True)
        (act_fn): Sequential()
      )
      (context_hidden_projection): Sequential(
        (projection): Linear(in_features=2128, out_features=512, bias=True)
        (act_fn): Sequential()
      )
      (alpha_projection): Sequential(
        (projection): Linear(in_features=64, out_features=1, bias=False)
        (squeeze): Squeeze()
        (temperature): Temperature()
        (softmax): Softmax(dim=1)
      )
    )
    (molecule_attention_3_head_1): ContextAttentionLayer(
      (individual_nonlinearity): Sequential()
      (reference_projection): Sequential(
        (projection): Linear(in_features=64, out_features=64, bias=True)
        (act_fn): Sequential()
      )
      (context_projection): Sequential(
        (projection): Linear(in_features=1, out_features=64, bias=True)
        (act_fn): Sequential()
      )
      (context_hidden_projection): Sequential(
        (projection): Linear(in_features=2128, out_features=512, bias=True)
        (act_fn): Sequential()
      )
      (alpha_projection): Sequential(
        (projection): Linear(in_features=64, out_features=1, bias=False)
        (squeeze): Squeeze()
        (temperature): Temperature()
        (softmax): Softmax(dim=1)
      )
    )
    (molecule_attention_3_head_2): ContextAttentionLayer(
      (individual_nonlinearity): Sequential()
      (reference_projection): Sequential(
        (projection): Linear(in_features=64, out_features=64, bias=True)
        (act_fn): Sequential()
      )
      (context_projection): Sequential(
        (projection): Linear(in_features=1, out_features=64, bias=True)
        (act_fn): Sequential()
      )
      (context_hidden_projection): Sequential(
        (projection): Linear(in_features=2128, out_features=512, bias=True)
        (act_fn): Sequential()
      )
      (alpha_projection): Sequential(
        (projection): Linear(in_features=64, out_features=1, bias=False)
        (squeeze): Squeeze()
        (temperature): Temperature()
        (softmax): Softmax(dim=1)
      )
    )
    (molecule_attention_3_head_3): ContextAttentionLayer(
      (individual_nonlinearity): Sequential()
      (reference_projection): Sequential(
        (projection): Linear(in_features=64, out_features=64, bias=True)
        (act_fn): Sequential()
      )
      (context_projection): Sequential(
        (projection): Linear(in_features=1, out_features=64, bias=True)
        (act_fn): Sequential()
      )
      (context_hidden_projection): Sequential(
        (projection): Linear(in_features=2128, out_features=512, bias=True)
        (act_fn): Sequential()
      )
      (alpha_projection): Sequential(
        (projection): Linear(in_features=64, out_features=1, bias=False)
        (squeeze): Squeeze()
        (temperature): Temperature()
        (softmax): Softmax(dim=1)
      )
    )
  )
  (gene_attention_layers): Sequential(
    (gene_attention_0_head_0): ContextAttentionLayer(
      (individual_nonlinearity): Sequential()
      (reference_projection): Sequential(
        (projection): Linear(in_features=1, out_features=1, bias=True)
        (act_fn): Sequential()
      )
      (context_projection): Sequential(
        (projection): Linear(in_features=16, out_features=1, bias=True)
        (act_fn): Sequential()
      )
      (context_hidden_projection): Sequential(
        (projection): Linear(in_features=512, out_features=2128, bias=True)
        (act_fn): Sequential()
      )
      (alpha_projection): Sequential(
        (projection): Linear(in_features=1, out_features=1, bias=False)
        (squeeze): Squeeze()
        (temperature): Temperature()
        (softmax): Softmax(dim=1)
      )
    )
    (gene_attention_0_head_1): ContextAttentionLayer(
      (individual_nonlinearity): Sequential()
      (reference_projection): Sequential(
        (projection): Linear(in_features=1, out_features=1, bias=True)
        (act_fn): Sequential()
      )
      (context_projection): Sequential(
        (projection): Linear(in_features=16, out_features=1, bias=True)
        (act_fn): Sequential()
      )
      (context_hidden_projection): Sequential(
        (projection): Linear(in_features=512, out_features=2128, bias=True)
        (act_fn): Sequential()
      )
      (alpha_projection): Sequential(
        (projection): Linear(in_features=1, out_features=1, bias=False)
        (squeeze): Squeeze()
        (temperature): Temperature()
        (softmax): Softmax(dim=1)
      )
    )
    (gene_attention_1_head_0): ContextAttentionLayer(
      (individual_nonlinearity): Sequential()
      (reference_projection): Sequential(
        (projection): Linear(in_features=1, out_features=1, bias=True)
        (act_fn): Sequential()
      )
      (context_projection): Sequential(
        (projection): Linear(in_features=64, out_features=1, bias=True)
        (act_fn): Sequential()
      )
      (context_hidden_projection): Sequential(
        (projection): Linear(in_features=512, out_features=2128, bias=True)
        (act_fn): Sequential()
      )
      (alpha_projection): Sequential(
        (projection): Linear(in_features=1, out_features=1, bias=False)
        (squeeze): Squeeze()
        (temperature): Temperature()
        (softmax): Softmax(dim=1)
      )
    )
    (gene_attention_1_head_1): ContextAttentionLayer(
      (individual_nonlinearity): Sequential()
      (reference_projection): Sequential(
        (projection): Linear(in_features=1, out_features=1, bias=True)
        (act_fn): Sequential()
      )
      (context_projection): Sequential(
        (projection): Linear(in_features=64, out_features=1, bias=True)
        (act_fn): Sequential()
      )
      (context_hidden_projection): Sequential(
        (projection): Linear(in_features=512, out_features=2128, bias=True)
        (act_fn): Sequential()
      )
      (alpha_projection): Sequential(
        (projection): Linear(in_features=1, out_features=1, bias=False)
        (squeeze): Squeeze()
        (temperature): Temperature()
        (softmax): Softmax(dim=1)
      )
    )
    (gene_attention_2_head_0): ContextAttentionLayer(
      (individual_nonlinearity): Sequential()
      (reference_projection): Sequential(
        (projection): Linear(in_features=1, out_features=1, bias=True)
        (act_fn): Sequential()
      )
      (context_projection): Sequential(
        (projection): Linear(in_features=64, out_features=1, bias=True)
        (act_fn): Sequential()
      )
      (context_hidden_projection): Sequential(
        (projection): Linear(in_features=512, out_features=2128, bias=True)
        (act_fn): Sequential()
      )
      (alpha_projection): Sequential(
        (projection): Linear(in_features=1, out_features=1, bias=False)
        (squeeze): Squeeze()
        (temperature): Temperature()
        (softmax): Softmax(dim=1)
      )
    )
    (gene_attention_2_head_1): ContextAttentionLayer(
      (individual_nonlinearity): Sequential()
      (reference_projection): Sequential(
        (projection): Linear(in_features=1, out_features=1, bias=True)
        (act_fn): Sequential()
      )
      (context_projection): Sequential(
        (projection): Linear(in_features=64, out_features=1, bias=True)
        (act_fn): Sequential()
      )
      (context_hidden_projection): Sequential(
        (projection): Linear(in_features=512, out_features=2128, bias=True)
        (act_fn): Sequential()
      )
      (alpha_projection): Sequential(
        (projection): Linear(in_features=1, out_features=1, bias=False)
        (squeeze): Squeeze()
        (temperature): Temperature()
        (softmax): Softmax(dim=1)
      )
    )
    (gene_attention_3_head_0): ContextAttentionLayer(
      (individual_nonlinearity): Sequential()
      (reference_projection): Sequential(
        (projection): Linear(in_features=1, out_features=1, bias=True)
        (act_fn): Sequential()
      )
      (context_projection): Sequential(
        (projection): Linear(in_features=64, out_features=1, bias=True)
        (act_fn): Sequential()
      )
      (context_hidden_projection): Sequential(
        (projection): Linear(in_features=512, out_features=2128, bias=True)
        (act_fn): Sequential()
      )
      (alpha_projection): Sequential(
        (projection): Linear(in_features=1, out_features=1, bias=False)
        (squeeze): Squeeze()
        (temperature): Temperature()
        (softmax): Softmax(dim=1)
      )
    )
    (gene_attention_3_head_1): ContextAttentionLayer(
      (individual_nonlinearity): Sequential()
      (reference_projection): Sequential(
        (projection): Linear(in_features=1, out_features=1, bias=True)
        (act_fn): Sequential()
      )
      (context_projection): Sequential(
        (projection): Linear(in_features=64, out_features=1, bias=True)
        (act_fn): Sequential()
      )
      (context_hidden_projection): Sequential(
        (projection): Linear(in_features=512, out_features=2128, bias=True)
        (act_fn): Sequential()
      )
      (alpha_projection): Sequential(
        (projection): Linear(in_features=1, out_features=1, bias=False)
        (squeeze): Squeeze()
        (temperature): Temperature()
        (softmax): Softmax(dim=1)
      )
    )
  )
  (batch_norm): BatchNorm1d(17856, eps=1e-05, momentum=0.1, affine=True, track_running_stats=True)
  (dense_layers): Sequential(
    (dense_0): Sequential(
      (projection): Linear(in_features=17856, out_features=1024, bias=True)
      (batch_norm): BatchNorm1d(1024, eps=1e-05, momentum=0.1, affine=True, track_running_stats=True)
      (act_fn): ReLU()
      (dropout): Dropout(p=0.5, inplace=False)
    )
    (dense_1): Sequential(
      (projection): Linear(in_features=1024, out_features=512, bias=True)
      (batch_norm): BatchNorm1d(512, eps=1e-05, momentum=0.1, affine=True, track_running_stats=True)
      (act_fn): ReLU()
      (dropout): Dropout(p=0.5, inplace=False)
    )
  )
  (final_dense): Sequential(
    (projection): Linear(in_features=512, out_features=1, bias=True)
    (sigmoidal): Sigmoid()
  )
)
INFO:paccmann_v2:Training about to start...

INFO:paccmann_v2:paccmann_v2_params.json
INFO:paccmann_v2:== Epoch [0/10] ==
cuda
cuda
cuda
cuda
cuda
cuda
cuda
cuda
cuda
cuda
cuda
cuda
cuda
cuda
cuda
cuda
cuda
cuda
cuda
cuda
cuda
cuda
cuda
cuda
cuda
cuda
cuda
^CTraceback (most recent call last):
  File "/home/deanelzinga/phillipdowney/paccmann_rl/./code/paccmann_predictor/examples/IC50/train_paccmann.py", line 344, in <module>
…
